[384, 192, 96, 48, 24, 12, 6, 3, 1]
12444
Generator_cnn(
  (latent_to_features): Sequential(
    (0): Linear(in_features=1000, out_features=1024, bias=True)
    (1): ReLU()
  )
  (layer1): Sequential(
    (0): ConvTranspose2d(128, 64, kernel_size=(2, 2), stride=(2, 2))
    (1): LeakyReLU(negative_slope=0.01)
  )
  (layer2): Sequential(
    (0): ConvTranspose2d(64, 32, kernel_size=(3, 2), stride=(1, 2))
    (1): LeakyReLU(negative_slope=0.01)
  )
  (layer3): Sequential(
    (0): ConvTranspose2d(32, 16, kernel_size=(3, 2), stride=(1, 2))
    (1): LeakyReLU(negative_slope=0.01)
  )
  (layer4): Sequential(
    (0): ConvTranspose2d(16, 1, kernel_size=(3, 11), stride=(1, 1))
    (1): Sigmoid()
  )
)
Discriminator_linear(
  (image_to_features): Sequential(
    (0): Linear(in_features=420, out_features=420, bias=True)
    (1): Linear(in_features=420, out_features=420, bias=True)
    (2): Linear(in_features=420, out_features=420, bias=True)
    (3): Linear(in_features=420, out_features=420, bias=True)
    (4): Linear(in_features=420, out_features=420, bias=True)
    (5): Linear(in_features=420, out_features=420, bias=True)
    (6): Linear(in_features=420, out_features=1, bias=True)
  )
)
sliced_projection_mode rand
average_rand_ortho_sliced_distance= 1.1453370098024606e-05
average_rand_sliced_distance 4.754693873110227e-07

Epoch 1
rand_ortho_sliced_distance= tensor(0.0011453370, device='cuda:0', grad_fn=<MeanBackward0>) used time= 0.012487077713012695 min one epoch spend= 0.012487077713012695 mins
rand_sliced_distance= tensor(4.7546938731e-05, device='cuda:0', grad_fn=<MeanBackward0>) used time= 0.012487077713012695 min one epoch spend= 0.012487077713012695 mins
…
